cnn_netflow_classify/cnn_netflow.pkl (torch, 24471 bytes, 6 tensors)

weight f4 [16, 1, 3, 3]
000000 4d 68 cf 3d 41 14 9b be 17 cd 0e 3e b3 af 06 be
       0.10127316 -0.3028889 0.13945423 -0.13152961
000010 3f 97 67 be 2b e9 22 3d fb df 57 be ad c5 15 be
       -0.2261629 0.039773148 -0.21081536 -0.14626189
000020 34 ac 97 3e a8 e1 82 be a0 0e 30 bd cf 89 a3 be
       0.29623568 -0.25562787 -0.042982697 -0.31941077
000030 e8 94 32 be 78 0a 2e be 49 9a 3b be 5b 9e 6d 3b
       -0.17439616 -0.16996181 -0.18320574 0.0036257717
000040 33 f4 78 3e 3b f1 30 ba 9d 40 19 bf 3e e8 c9 3d
       0.24311905 -0.00067498133 -0.5986422 0.0985875
000050 b1 cd 8e bc ab a0 06 be 8e 54 e2 be 1e 71 0e be
       -0.017432066 -0.13147227 -0.44205135 -0.13910338
000060 c0 c6 f4 bd 95 fb b3 be c5 00 ce bd 6c bd 8f bd
       -0.11951971 -0.3515288 -0.100587405 -0.07018551
000070 de 0a 20 3e 82 92 36 3e 23 fc 38 be e9 2e a0 bd
       0.15629146 0.17829326 -0.18064933 -0.078214474
000080 95 b0 9a be 4f 3c e8 bd 47 83 e8 3d e4 2f 0a be
       -0.30212846 -0.11339628 0.11353164 -0.13494831
000090 0d 26 6a be 36 e7 cc bb a0 5e 2c 3e 6b f6 14 3e
       -0.22866078 -0.0062531484 0.16832972 0.14547126
0000a0 55 c9 a8 be 9a a2 2a be 5c 57 86 3e 30 ce 59 3e
       -0.32966104 -0.1666359 0.26238525 0.2127006
0000b0 08 97 a1 3d 5c 71 df bd ed a8 86 be ca a6 e1 3d
       0.07890135 -0.109102935 -0.26300755 0.110181406
0000c0 2a ac e4 bd b7 d1 0d 3e f3 79 92 3d cf b2 81 3d
       -0.1116565 0.13849531 0.07152166 0.06332933
0000d0 a1 14 0b 3e bc 5a 12 3d 6f f3 b1 3d c3 1c 97 be
       0.13582088 0.035731062 0.086890094 -0.2951413
0000e0 29 68 95 be 90 fd 06 be 07 ea 27 be bb 3a 1b 3b
       -0.2918103 -0.13182664 -0.16397868 0.002368613
0000f0 e9 7a 4f be a3 b6 28 bf 5b 26 50 3e 63 8c 17 be
       -0.2026173 -0.6590368 0.20327131 -0.14799647
000100 9d 65 20 3e 10 54 ea be af be 88 3e 25 99 5a 3e
       0.15663762 -0.4576726 0.2670798 0.21347483
000110 ff 6a 6a bd 3c 84 48 3e 0f 94 17 be f9 31 a1 be
       -0.057230946 0.19581693 -0.14802574 -0.3148344
000120 1c 49 bd bc 21 c8 97 be ab 16 92 3e 3d 9f 9a 3e
       -0.02310615 -0.29644874 0.2853292 0.30199614
000130 67 80 aa 3d 49 dc 39 bb 2d ab 1c be fe 42 9c 3e
       0.08325272 -0.002836006 -0.15299673 0.3051986
000140 e3 b9 2c 3e dd 4c 2b 3e a1 62 6d be 55 fb 68 bd
       0.16867785 0.1672854 -0.23182155 -0.056880314
000150 06 c4 ed 3d 09 72 a8 be a5 03 8e bb 98 85 91 3e
       0.11609654 -0.32899502 -0.0043339306 0.28422236
000160 de 12 8d be 06 7f d3 be 57 28 51 3e 60 b5 a7 be
       -0.27553457 -0.4130785 0.20425545 -0.32755566
000170 d3 85 92 3c bc fa 89 be f8 c1 6f bd 4c 8f 6e 3e
       0.017886078 -0.26949108 -0.058534592 0.23296851
000180 32 52 85 3e 1b 87 4f bd a1 52 fc 3c 61 f2 2c 3e
       0.26039273 -0.050665956 0.03080112 0.16889335
000190 9f ab 39 be 09 fd 21 3e 3c 0b a4 3d 86 b7 65 be
       -0.18131875 0.15819182 0.08009955 -0.2243329
0001a0 7f 70 0f be 0b 9b b7 3c 11 ee 65 3e 14 ce f4 3c
       -0.14007758 0.022412797 0.22454096 0.029883422
0001b0 24 cb fc bd 76 39 96 3d 33 08 61 bd 31 0e ab be
       -0.123434335 0.073351786 -0.05493946 -0.33409265
0001c0 39 1e 92 3e 76 72 6c 3d b1 d9 a3 3c 77 57 e7 bd
       0.28538683 0.057726346 0.020001264 -0.112959795
0001d0 86 fb bb bd 6b 60 59 3e 44 b0 7d 3d ef a8 d9 3d
       -0.09178834 0.21228187 0.061935678 0.10627925
0001e0 73 b1 3c 3e e0 05 26 3e c2 f2 84 3e 17 43 87 3d
       0.18427067 0.16213179 0.2596646 0.06604593
0001f0 4b 6c 10 be 7f 42 bf be 1a 6d c1 be 7d cc 01 3e
       -0.1410381 -0.3735542 -0.3777855 0.12675662
000200 c1 ba 06 be aa 61 09 3e f2 bb 83 be fa 27 58 3e
       -0.13157178 0.13416162 -0.25729328 0.21109
000210 9a 45 d0 bc 9a 6a 37 3e fe 6c e1 3d 1d 5b d2 3d
       -0.025423814 0.17911759 0.11007117 0.10271285
000220 9c 7e 3b 3d ef a8 9a 3d 5f b7 1c 3e fb 51 d9 bd
       0.04577504 0.07551753 0.15304326 -0.1061134
000230 e0 13 8f 3e 07 9c 29 3e cb 50 a2 3e a0 c6 61 3d
       0.2794485 0.16563426 0.31702265 0.055121064

bias f4 [16]
000000 0e fd 8d be 3e 99 25 bd 5e 92 98 3d 7b c8 76 be
       -0.27732128 -0.040429346 0.07449792 -0.24099915
000010 78 53 91 be 6b 82 98 3d 34 1c 8e be c9 05 6c be
       -0.28383994 0.0744675 -0.27755892 -0.23049082
000020 f7 0c 9f 3d 29 71 a9 3c 5f 7e a6 be 6a 63 29 3e
       0.07766145 0.020683842 -0.32518288 0.1654183
000030 cc 3b 9e be 4d 38 8c be 78 ea ca be af fe 66 bd
       -0.30904996 -0.27386704 -0.3963201 -0.05639523

weight f4 [32, 16, 3, 3]
000000 3b df 3a bd a6 82 f2 bc 6d ee a2 3d 78 cb 2f 3c
       -0.045623045 -0.029603314 0.07955632 0.010729663
000010 b6 96 c0 bc 35 80 93 3d 2a 23 5c 3d 6c 28 fb 3c
       -0.023509365 0.07202188 0.053744473 0.030658923
000020 08 9c 68 bd 93 6a 6e bd a0 d9 2f bd f1 59 95 3d
       -0.056789428 -0.058207106 -0.042932153 0.072925456
000030 df 26 9d 3d 26 9e 6e bd 28 ab 10 bd fe 3d 38 bd
       0.0767343 -0.05825629 -0.035319477 -0.044980995
000040 f0 ac a8 3c db cb 6e bd 6b 7c a8 bd 06 e2 0c bd
       0.020590276 -0.05829988 -0.08226856 -0.03439524
000050 cb 27 6d bd f8 8d 07 bc 76 ee 43 bd 76 e5 09 3d
       -0.057899278 -0.008273594 -0.047834836 0.033666097
000060 dd 31 9e 3d b8 0a 03 3d f3 7f 85 3d 3c 9b 93 3c
       0.077243544 0.031992644 0.06518545 0.018018357
000070 d6 b3 05 3d 70 d0 ed 3c 5d 25 a8 3d f6 90 64 bd
       0.032642208 0.029030055 0.082102515 -0.055802308
000080 f0 c9 cc bb 40 c0 19 3c 78 fe 3b bd 53 bc 00 bd
       -0.0062496588 0.009384215 -0.045896977 -0.0314296
000090 d6 fd ea bc fe 09 13 3d 43 83 7d bd 73 dd 7e bd
       -0.028685492 0.0358982 -0.06189276 -0.06222291
0000a0 38 2f 48 bc b2 4c 07 3d 56 74 56 3d f6 a5 90 bd
       -0.012218289 0.033032127 0.05235704 -0.070629045
0000b0 3a 92 69 3d e8 f6 70 3c 58 56 1d 3d 80 96 22 3c
       0.05702422 0.014707305 0.038412422 0.009923577
0000c0 30 74 9e bc 54 9b 88 3c 5c 30 e8 bc 7d 3b a6 3d
       -0.019342512 0.016675629 -0.028343372 0.08116815
0000d0 ff ff 88 3d 00 d2 f8 3c 00 4a be bc fe 4b 75 bd
       0.066894524 0.030373573 -0.023228645 -0.059886925
0000e0 00 cc 66 bc 65 c8 8b 3d 8b e4 99 bd 54 78 c4 3c
       -0.014086723 0.068253316 -0.07514294 0.023983158
0000f0 62 f8 2d 3d 6b 49 8d 3d 61 9b 8f 3d 8f a9 a8 3d
       0.042473204 0.06898769 0.07012058 0.08235466
000100 15 2a 9e 3d 37 0e a2 bd a1 e0 96 3d 03 63 a1 bd
       0.0772287 -0.079128675 0.07367063 -0.07880213
000110 98 f5 24 bc 50 69 8b 3c e6 79 cb bc 29 dc a9 3d
       -0.01006832 0.01701799 -0.0248384 0.08293945
000120 b0 ad 9f 3c 66 86 0e bd 13 27 a8 3d 06 fc 55 bd
       0.019492 -0.03479614 0.08210578 -0.0522423
000130 1e e4 1a bd 40 cf 76 bc 37 8f 96 3d 20 6c df 3c
       -0.037815206 -0.015064061 0.07351535 0.027273238
000140 30 45 9d bd 02 8d 38 3d 5b d9 71 bd a3 43 70 bd
       -0.07679212 0.04505635 -0.059045177 -0.058658253
000150 80 43 ba 3c f6 19 16 3d 5e eb 01 3d 70 d8 a7 bb
       0.022737265 0.036645852 0.031718604 -0.005122237
000160 91 21 92 3d 9a 90 64 3d 5e 5c 0c bd 9c 8a 89 bc
       0.071353085 0.055801965 -0.034267776 -0.016789727
000170 ce 29 11 bd ba c7 0c 3d c0 2b f8 3c a8 79 65 bd
       -0.03544026 0.03437016 0.0302943 -0.056024224
000180 ff f9 89 bd 5f 01 8b 3d 4e 70 6a 3d 40 a8 db ba
       -0.06737136 0.06787371 0.05723601 -0.0016758516
000190 38 56 4f bc 10 36 86 bc a6 e8 5e bd 56 94 c4 bc
       -0.0126548335 -0.0163832 -0.05442109 -0.023996513
0001a0 d0 b5 92 3c 54 97 d8 3c 0e bd 12 3d 34 53 b3 3c
       0.01790896 0.026439346 0.035824828 0.02189026
0001b0 48 f3 4a bc 08 b1 7d bd 30 2c c6 bc 7a 71 85 bd
       -0.012387104 -0.06193641 -0.024190992 -0.065157846
0001c0 e0 35 7d 3b 9c bd 81 bd f6 64 0b 3d 66 85 ec bc
       0.0038636848 -0.06334993 0.03403183 -0.028872203
0001d0 38 fa 58 3c fa d8 10 3d e6 e5 16 bd f4 f5 84 3c
       0.013243251 0.035363175 -0.036840342 0.01623056
0001e0 e1 0d 9f 3d 8f 80 a6 3d 4c b9 ad 3c 86 1b 69 bd
       0.07766319 0.08129989 0.02120652 -0.056911014
0001f0 54 df b5 3c 2e b0 3f bd 00 17 45 bc b3 7f 51 bd
       0.022201218 -0.046798877 -0.012029409 -0.051147174
000200 b6 90 0c bd 38 95 0b bd 20 af 47 3b 34 19 fd 3c
       -0.034317695 -0.034077853 0.0030469373 0.030895807
000210 a8 bc 59 bc 93 b4 89 bd e0 01 37 bb 30 0f 9d bc
       -0.013289608 -0.06723895 -0.0027924702 -0.019172281
000220 20 b0 a2 3c 40 5c 88 3a 80 f7 fd 3b 9b 58 83 3d
       0.019859374 0.0010403469 0.0077504516 0.064133845
000230 78 3b 9d bd d6 19 4c bd 40 0f 6e bc 4f c2 a2 bd
       -0.076773584 -0.049829327 -0.014530003 -0.07947218
000240 18 d3 3d bd 26 35 47 3d 6e 6f 56 bd 6a f7 34 3d
       -0.046343893 0.04863467 -0.05235236 0.044181265
000250 da 85 3b 3d 28 34 10 3d 7f 10 9d 3d 50 25 56 bd
       0.045781948 0.03520599 0.07669162 -0.052281678
000260 d1 22 a8 3d e3 65 16 bd ff 9f 9c bd a2 c7 08 3d
       0.08209766 -0.03671826 -0.07647704 0.03339351
000270 da d5 69 3d f0 a5 e7 bc 2e 85 48 3d e3 65 38 bd
       0.05708871 -0.028277367 0.048955135 -0.04501904
000280 80 43 ba bb d0 03 a1 3b 79 7c a2 3d 76 81 44 bd
       -0.005684316 0.0049137846 0.079338975 -0.047975026
000290 e2 c8 10 3d 94 f2 8c bc 96 f1 26 bd 38 cc 4c bc
       0.035347827 -0.017205514 -0.040757738 -0.012499861
0002a0 12 e3 9e bd da 28 52 3d d0 d4 3d bd 28 30 a5 bd
       -0.07758154 0.05130849 -0.046345532 -0.08065826
0002b0 ae f3 49 bd 22 3a 67 3d 1a ac 99 bd 79 be 94 3d
       -0.049304657 0.056451924 -0.07503529 0.07262892
0002c0 60 4b 5b bc a6 fa 0c bd 40 40 d6 3b 30 96 93 bd
       -0.01338467 -0.034418724 0.006538421 -0.0720638
0002d0 00 a4 85 38 bc 8b b8 3c 58 df 06 3c 71 41 8b 3d
       6.3724816e-05 0.022527568 0.00823196 0.06799591
0002e0 40 e4 5e 3c 31 6c 93 3d c8 7e 7c bd 20 77 33 bd
       0.013604224 0.0719837 -0.061644346 -0.04381478
0002f0 60 21 96 bc d3 85 99 bd 80 ee a4 bc e1 1f 91 3d
       -0.018326461 -0.07496228 -0.020133257 0.070861585
000300 76 d6 1d bd 0e b1 78 3d b8 b5 18 bd cf 54 a5 3d
       -0.038534604 0.060715728 -0.037282676 0.080728166
000310 28 aa 60 bc 58 9e 59 bc 68 0e 56 3c 91 48 8b 3d
       -0.013712443 -0.013282381 0.013064958 0.0680095
000320 20 fb f3 bc 04 c8 9f bc 40 97 e7 3b c0 a5 d3 3a
       -0.029782832 -0.019504555 0.007067591 0.001614742
000330 af 75 9e 3d 62 ed 55 3d 62 2a 4a 3d 72 b0 6f 3d
       0.0773729 0.05222834 0.049356826 0.05851788
000340 d8 ad 20 3d 31 9f 90 3d 0c 53 8b 3c b2 7f 3a 3d
       0.03922829 0.07061613 0.017007373 0.045531936
000350 e0 4e b2 3c bc a0 9c bc 86 0b 5a bd 36 71 a6 bd
       0.021766126 -0.019119613 -0.053233646 -0.08127062
000360 31 b2 8c 3d 66 87 1a bd 1f 03 9f bd 54 40 9f bd
       0.06869925 -0.037726782 -0.07764267 -0.077759415
000370 88 18 15 3d 94 22 cf 3c a2 29 04 3d 9a 2e 2e 3d
       0.036400348 0.025285043 0.032266267 0.04252491
000380 4e 93 0c bd e8 65 7d bd 43 d1 14 bd 11 fb 9f 3d
       -0.03432017 -0.061864763 -0.03633238 0.07811559
000390 7e 5d 83 bd c8 db 2e 3c f0 31 c8 bb d4 54 95 bc
       -0.064143166 0.010672517 -0.0061094686 -0.018228926
0003a0 08 0a 02 bd d6 05 da bc 13 cd 11 bd 5c ff d4 bc
       -0.031747848 -0.02661411 -0.035595965 -0.026000671
0003b0 40 d0 9e 3c 1f 7f 9d 3d 59 6f 8d 3d c8 36 1d bc
       0.01938641 0.07690262 0.069060035 -0.00959558
0003c0 02 15 78 3d da 84 48 3d 4e 61 1b 3d c8 71 93 bd
       0.06056691 0.048954822 0.037934594 -0.071994364
0003d0 00 78 44 39 b2 09 68 3d 2a a4 a5 bd 19 40 86 3d
       0.0001873672 0.05664987 -0.080879524 0.065551944
0003e0 a6 d1 e5 bc 46 81 53 bd 00 dc e6 3b 77 b6 91 bd
       -0.02805407 -0.051636957 0.007045269 -0.071148805
0003f0 96 5f b7 bc 6e d3 01 bd b8 d6 74 bc 80 ab f5 bc
       -0.022384446 -0.031695776 -0.014943771 -0.029989004

bias f4 [32]
000000 c5 5c 8e 3d e3 8c 5e bd d6 8f 08 3d f7 b3 92 3d
       0.06951288 -0.05433358 0.033340298 0.07163232
000010 f1 a5 a9 3d 70 db bd 3c 48 e9 47 bc 20 1b 7f 3b
       0.08283604 0.023175925 -0.012201615 0.003892608
000020 26 15 a5 bd 13 7a 5f bd 07 d6 95 3d b3 53 3a bd
       -0.08060674 -0.05455978 0.07316213 -0.045489978
000030 8b 81 25 bd 30 5c 06 bd 3c ff 9b 3c 8a 2b 50 3d
       -0.040406745 -0.03280276 0.019042604 0.050822772
000040 26 7c e2 bc 98 2b a6 bd 36 d8 92 bd 08 4c 7f bc
       -0.02764709 -0.081137836 -0.07170145 -0.015582092
000050 0b 0c 6e bd 80 ec 8c bc f4 28 b3 3c ac aa b7 3c
       -0.058116954 -0.017202616 0.021870114 0.02242025
000060 8c 59 e1 3c 1a 9b 83 bd 40 b4 69 3c 26 41 2b 3d
       0.02750852 -0.06426068 0.014264166 0.041810177
000070 f7 a9 a3 bd 0d 51 87 3d 91 c3 90 3d 79 96 86 3d
       -0.079914026 0.06607256 0.07068551 0.06571669

weight f4 [6, 64]
000000 f3 df 3f 3d 73 ba bd bb 5f b6 d0 3d 98 98 46 bd
       0.046844434 -0.0057900487 0.101910345 -0.04848537
000010 2b 07 37 bd df 19 3b 3e e4 df 8b 3e 09 89 01 3e
       -0.04468457 0.18271588 0.27319252 0.12649931
000020 dc 8c 57 3d c5 18 54 3e e5 42 05 3e 7c e8 f8 3d
       0.05262457 0.20712574 0.130138 0.12153718
000030 5a 8f 25 bd 6a fa a0 bc 2e fe 71 bc 59 b1 89 3d
       -0.040419914 -0.019650657 -0.014770074 0.067232795
000040 aa 5b 17 bd fe 70 1a 3d 20 ca 1f 3d f2 00 29 3d
       -0.036952652 0.037705414 0.03901112 0.041260667
000050 4e a1 9e bd 6d 66 80 3d 05 6c 82 3d 9e ff d2 bd
       -0.0774561 0.06269536 0.06368259 -0.10302661
000060 af 56 03 3e f7 42 c4 bd 4e e5 77 3d 65 29 0e bc
       0.12826036 -0.09583085 0.060521416 -0.008676861
000070 68 9d cf 3d 66 3a 8c 3d d1 ee 8d bd a4 23 93 bd
       0.10137445 0.06847076 -0.06930316 -0.07184532
000080 f4 43 ce 3c bb 86 f4 3b 70 0b 34 3c 30 a1 bb 3d
       0.025178887 0.00746235 0.010989055 0.091616035
000090 35 37 c4 3c 74 ee c4 3c 0f 2c 2f be ab 1c 30 3d
       0.023952106 0.024039485 -0.17106651 0.04299609
0000a0 a3 6d b8 3d a2 c9 a2 3c 8d b0 19 3d 5b 45 4a 3d
       0.090052865 0.019871537 0.037521888 0.04938255
0000b0 54 aa 04 be b6 1e 26 bd 2d c4 41 3d 42 ae 31 3d
       -0.129556 -0.040556632 0.04730623 0.043379076
0000c0 93 3e ab 3d 67 25 f7 3d 88 a1 53 bb 85 8a a6 bc
       0.083615445 0.12067681 -0.0032292325 -0.020329723
0000d0 b0 e9 34 3d 9a 02 04 be 2a b9 40 bd 8c 37 c8 bd
       0.044168174 -0.12891617 -0.047051586 -0.0977622
0000e0 7d 11 36 bd 8a 65 95 3b 7e 5d 9e 3d 34 6d 18 3d
       -0.044450272 0.0045592235 0.07732676 0.03721352
0000f0 74 27 ae bd 75 2e b1 bc 3e 6f f0 3b c5 5d b7 3b
       -0.08503619 -0.021628598 0.00733748 0.005595895
000100 c0 92 cc bc f0 9d 1c 3d 43 df 91 bc 99 92 d8 bc
       -0.02497232 0.03823656 -0.017806655 -0.02643709
000110 aa 7b 05 bf b8 d2 0e bf ab 1b a4 be bc 5d a0 bd
       -0.5214182 -0.5579028 -0.3205236 -0.078303784
000120 d8 f0 94 3d 20 c0 98 bd 74 f3 37 bd 5c 16 89 be
       0.072725 -0.0745852 -0.04490991 -0.2677487
000130 b2 5e 22 3c 7e 3c f5 3d 85 af a7 3d 73 ff 9e 3d
       0.009910272 0.119744286 0.081877746 0.07763567
000140 9e 14 ca bd 43 f9 00 3d b0 40 1f 3d a3 62 f8 3d
       -0.09867214 0.031487714 0.03888005 0.121281885
000150 76 ea 8a 3d 4f a4 89 3d 56 db 00 3b 97 82 92 3d
       0.06783001 0.067207925 0.0019661984 0.07153814
000160 20 7b ee 3d 48 cb d8 3d 28 e6 3e bb fd 57 0a 3b
       0.11644578 0.10585648 -0.0029128883 0.0021109574
000170 eb 0d d1 3c cd 50 ad 3c b2 3c 73 bc 08 e2 1c 3e
       0.025519332 0.021156693 -0.014846014 0.15320599
000180 3f 6a 4f bc 0a 08 09 bd 46 c5 e2 3a ea 64 f3 3c
       -0.012659608 -0.033454932 0.0017301224 0.029711206
000190 f3 95 a8 3b c4 41 83 3d 9d 9f 49 3e 76 19 3b bc
       0.0051448285 0.06409028 0.19689794 -0.011419645
0001a0 fc ac b2 bd 51 aa 7e 3d fa 26 18 3d 9b fc f3 3b
       -0.087244004 0.062174145 0.037146546 0.0074458844
0001b0 12 43 44 bd 01 3a 88 bd 9c 4a e5 bc 55 74 91 bc
       -0.047915526 -0.06651688 -0.027989678 -0.017755667
0001c0 d7 25 37 3d 12 d8 04 ba 31 4b 25 be 89 8f 20 bc
       0.04471382 -0.00050675974 -0.16141964 -0.009799846
0001d0 0b 4f 2b 3c ad 29 3f bd 09 a0 92 3d cf 6b 0e 3c
       0.010455857 -0.046670604 0.071594305 0.008692696
0001e0 23 50 b8 bd e6 fd 73 bd c1 9d a3 bd 78 61 cd 3d
       -0.0899966 -0.05956831 -0.079890735 0.10028356
0001f0 4f e9 af 3d 98 9c b9 bd 6f fa 97 bd 0e 46 7d bc
       0.08589422 -0.09063071 -0.07420813 -0.015458597
000200 67 6f b1 bc 93 80 49 3d 37 94 55 3d 29 b9 29 bb
       -0.021659566 0.049194884 0.0521433 -0.0025897718
000210 f5 1b 71 bd 0b b3 c3 be df bf 85 be 3e 83 d1 3d
       -0.058864553 -0.38222536 -0.2612295 0.102301106
000220 28 26 fa bc aa 22 4e be 9b 34 20 bd 09 1e ea 3b
       -0.030535772 -0.20130411 -0.03911267 0.0071446938
000230 cb 22 27 3d b7 a6 cc bc bf c3 09 3d 64 09 11 be
       0.040804666 -0.02498184 0.033633944 -0.14163738
000240 b5 09 56 bd df d2 6b 3d a0 78 0b bd 46 55 b6 3c
       -0.05225535 0.05757415 -0.034050584 0.022257458
000250 49 2c a8 bd a5 95 d2 3d d8 7f bc bc 69 98 79 3d
       -0.08211572 0.10282449 -0.02301018 0.060936365
000260 9e 04 48 bd 60 e2 ba bc ae 56 ab be 3a 67 10 3d
       -0.04883253 -0.022813022 -0.3346457 0.035254695
000270 d4 c9 91 bd bb 90 c2 bc e0 2b 11 3d 24 94 83 3d
       -0.07118574 -0.023750653 0.035442233 0.0642474
000280 a7 f7 10 bd db 93 8e bc 72 fd c5 bd 4e 29 8d bd
       -0.03539243 -0.017404487 -0.096674815 -0.06892644
000290 0e 25 1b bd c5 91 e7 bd a0 fc 6e be 3a 5d c3 3d
       -0.037877135 -0.113071 -0.23338556 0.09539266
0002a0 f7 67 c2 bd d5 bd f3 bd 1d 22 1f bd 3d e9 6b 3d
       -0.09492486 -0.11901442 -0.038850892 0.05759548
0002b0 74 9c 8e 3d 91 e7 86 3d 87 d1 b7 3c 76 7b d6 3d
       0.06963435 0.065871365 0.022438778 0.10472767
0002c0 94 67 ec 3d 63 df a6 3d fe f7 19 bd 39 8a bb bd
       0.115431935 0.081480764 -0.03759002 -0.09157223
0002d0 57 0b 82 bd 52 5a a1 bc 99 ab c5 3d 5f 5c 4a bd
       -0.06349819 -0.019696388 0.0965187 -0.0494045
0002e0 ec 13 3d bb e5 a6 53 3d bb d8 f7 bc fd 45 8c bd
       -0.0028850986 0.051672835 -0.030254712 -0.06849287
0002f0 23 89 3e 3d a6 ea 0b 3d d8 7b 67 bd 15 b6 84 3d
       0.046517503 0.034159325 -0.05651459 0.06480042
000300 ed 10 35 bb 6a b1 df 3d 53 3f 8e bd ce 2b 04 be
       -0.0027628497 0.10922511 -0.06945672 -0.12907335
000310 3f 1e c1 be 80 26 40 be ed ba 39 be 24 3d bf 3b
       -0.37718388 -0.18764687 -0.18137713 0.005836146
000320 a0 3f 11 3d 4f 40 6e be e5 e7 e0 bd c6 e8 44 bd
       0.03546107 -0.2326672 -0.1098173 -0.048073553
000330 52 ca dd 3d 25 af 79 3c d5 db a3 bd ec 92 5f bd
       0.10829605 0.015239512 -0.08000914 -0.054583475
000340 43 8f 80 3c 98 79 6e 3d 56 ed fc bd 77 ad e9 bc
       0.015693313 0.05822143 -0.12349956 -0.028525097
000350 08 c1 ca bd b7 1e bc bd b1 ea f0 3c bb d7 8b bd
       -0.09900099 -0.09185546 0.029408785 -0.06828257
000360 96 a6 11 be 9c 42 28 3d 22 43 d8 3d c2 7b cd 3d
       -0.14223704 0.04107915 0.105596796 0.100333706
000370 4a bb d1 3d 5a dc a1 3d bb 55 cb 3d e3 9e dd 3d
       0.10240801 0.07903357 0.09928461 0.10821321
000380 16 98 f3 bd 79 e4 a1 3b 09 93 b9 bd 88 14 83 bd
       -0.118942425 0.004940566 -0.09061248 -0.064004004
000390 35 aa 25 3d ba 42 c4 bd 55 42 d0 bd e8 cf 2b bd
       0.040445525 -0.095830396 -0.10168902 -0.04194632
0003a0 d8 66 19 3d 95 48 ec 3b 57 77 11 bd 83 85 9e 3d
       0.037451595 0.007210801 -0.035514202 0.07740309
0003b0 6a ee 89 3d 0b 50 c2 bd 5e ff 0e bd 52 91 60 3b
       0.06734927 -0.09487923 -0.034911506 0.0034266305
0003c0 42 55 ae 3d e8 b7 ed bd db d1 8b 3d e0 f6 30 bd
       0.085123554 -0.11607343 0.06827136 -0.04320419
0003d0 29 5d ee ba 29 17 62 bd aa 19 89 bd 2d 4d 1f 3d
       -0.0018185723 -0.05519787 -0.06694348 0.03889196
0003e0 2f 5b b7 3d dd a5 14 bb 1e 34 de 3c fc 58 2e bd
       0.08952939 -0.002268187 0.02712446 -0.04256533
0003f0 21 ec 01 3e 86 72 da 3d f6 08 08 bd 82 a1 cb 3d
       0.12687732 0.10666375 -0.03321167 0.099429145

bias f4 [6]
000000 9b 98 84 bd 18 f5 c2 bc f7 5c 9d bd 6d d5 56 bd
       -0.0647442 -0.02379851 -0.07683747 -0.052449632
000010 4b 69 c6 3c 74 b2 ea 3c
       0.02422013 0.028649546
